…
2020-04-13 13:19:28.312985: I tensorflow/stream_executor/platform/default/dso_loader.cc:44] Successfully opened dynamic library libcublas.so.10.0
2020-04-13 13:19:28.605703: I tensorflow/stream_executor/platform/default/dso_loader.cc:44] Successfully opened dynamic library libcudnn.so.7
using my model
running on fold  0
Model: "model_1"
__________________________________________________________________________________________________
Layer (type)                    Output Shape         Param #     Connected to                     
==================================================================================================
input_1 (InputLayer)            (None, 22050, 1)     0                                            
__________________________________________________________________________________________________
fConv1 (Conv1D)                 (None, 2757, 8)      264         input_1[0][0]                    
__________________________________________________________________________________________________
cConv1 (Conv1D)                 (None, 690, 8)       1032        input_1[0][0]                    
__________________________________________________________________________________________________
batch_normalization_1 (BatchNor (None, 2757, 8)      32          fConv1[0][0]                     
__________________________________________________________________________________________________
batch_normalization_2 (BatchNor (None, 690, 8)       32          cConv1[0][0]                     
__________________________________________________________________________________________________
fMaxP1 (MaxPooling1D)           (None, 345, 8)       0           batch_normalization_1[0][0]      
__________________________________________________________________________________________________
cMaxP1 (MaxPooling1D)           (None, 345, 8)       0           batch_normalization_2[0][0]      
__________________________________________________________________________________________________
add_1 (Add)                     (None, 345, 8)       0           fMaxP1[0][0]                     
                                                                 cMaxP1[0][0]                     
__________________________________________________________________________________________________
dropout_1 (Dropout)             (None, 345, 8)       0           add_1[0][0]                      
__________________________________________________________________________________________________
bidirectional_1 (Bidirectional) (None, 345, 64)      10752       dropout_1[0][0]                  
__________________________________________________________________________________________________
bidirectional_2 (Bidirectional) (None, 64)           25088       bidirectional_1[0][0]            
__________________________________________________________________________________________________
dropout_2 (Dropout)             (None, 64)           0           bidirectional_2[0][0]            
__________________________________________________________________________________________________
dense_1 (Dense)                 (None, 2)            130         dropout_2[0][0]                  
==================================================================================================
Total params: 37,330
Trainable params: 37,298
Non-trainable params: 32
__________________________________________________________________________________________________
Train on 33900 samples, validate on 4200 samples
Epoch 1/200
 - 71s - loss: 0.1581 - mse: 0.0565 - val_loss: 0.0549 - val_mse: 0.0546
…
